…
The ﬁnal step i.e., training and evaluating an ANN-based regression model is discussed
in this section. Initially, the entire dataset is split into 20% testing data and 80% training
data. In training the ANN model, the authors have used keras sequential model in which
ﬁve dense layers are added and ‘relu’ activation function is used. Adam optimiser is used
to optimise the performance of the model. Table 4 shows the model summary. The total
trainable parameters are 38,351 whereas there are 0 non-trainable parameters.
Int. J. Environ. Res. Public Health 2022 ,19, 7898 11 of 15
Table 4. ANN model summary.
Layer (Type) Output Shape Number of Parameters
Dense (dense) (None, 50) 450
activation (activation) (None, 50) 0
dense_1 (None, 150) 7650
activation_1 (activation) (None, 150) 0
dense_2 (dense) (None, 150) 22,650
activation_2 (activation) (None, 50) 0
dense_3 (dense) (None, 50) 7550
activation_3 (activation) (None, 50) 0
dense_4 (dense) (None, 1) 51
The model was trained for 100 epochs, and the batch size was 20 with a validation
split equal to 0.2. The accuracy of this model came out to be 92.72%, and the validation and
training loss is plotted in Figure 7.
Int. J. Environ. Res. Public Health 2022 , 19, x FOR PEER REVIEW 12 of 16 
 
 
Figure 7. Training loss vs. validation loss. 
Moreover, the model predictions and true values were also plotted to see the rela-
…
